…
For layer-0, the filter size is 3x3 and an input image has 3 channels, so actually a filter will be trained three times for each channel, ie. each filter vector has dimension of 3x3x3=27;
             and 16 filters are trained, this is why we see 16 rows printed.
For layer-2, each filter vector has dimension of 3x3x16, and there are 32 filters.
For layer-4, each filter vector has dimension of 3x3x32, and there are 64 filters.
For layer-6, each filter vector has dimension of 3x3x64, and there are 128 filters.

Demo results:
====================================================================================================================
layer     filters    size              input                output
    0 conv     16  3 x 3 / 1   416 x 416 x   3   ->   416 x 416 x  16  0.150 BFLOPs
    1 max          2 x 2 / 2   416 x 416 x  16   ->   208 x 208 x  16
    2 conv     32  3 x 3 / 1   208 x 208 x  16   ->   208 x 208 x  32  0.399 BFLOPs
    3 max          2 x 2 / 2   208 x 208 x  32   ->   104 x 104 x  32
    4 conv     64  3 x 3 / 1   104 x 104 x  32   ->   104 x 104 x  64  0.399 BFLOPs
    5 max          2 x 2 / 2   104 x 104 x  64   ->    52 x  52 x  64
    6 conv    128  3 x 3 / 1    52 x  52 x  64   ->    52 x  52 x 128  0.399 BFLOPs
    7 max          2 x 2 / 2    52 x  52 x 128   ->    26 x  26 x 128
    8 conv    256  3 x 3 / 1    26 x  26 x 128   ->    26 x  26 x 256  0.399 BFLOPs
    9 max          2 x 2 / 2    26 x  26 x 256   ->    13 x  13 x 256
   10 conv    512  3 x 3 / 1    13 x  13 x 256   ->    13 x  13 x 512  0.399 BFLOPs
   11 max          2 x 2 / 1    13 x  13 x 512   ->    13 x  13 x 512
   12 conv   1024  3 x 3 / 1    13 x  13 x 512   ->    13 x  13 x1024  1.595 BFLOPs
   13 conv    256  1 x 1 / 1    13 x  13 x1024   ->    13 x  13 x 256  0.089 BFLOPs
   14 conv    512  3 x 3 / 1    13 x  13 x 256   ->    13 x  13 x 512  0.399 BFLOPs
   15 conv    255  1 x 1 / 1    13 x  13 x 512   ->    13 x  13 x 255  0.044 BFLOPs
   16 yolo
   17 route  13
   18 conv    128  1 x 1 / 1    13 x  13 x 256   ->    13 x  13 x 128  0.011 BFLOPs
   19 upsample            2x    13 x  13 x 128   ->    26 x  26 x 128
   20 route  19 8
   21 conv    256  3 x 3 / 1    26 x  26 x 384   ->    26 x  26 x 256  1.196 BFLOPs
   22 conv    255  1 x 1 / 1    26 x  26 x 256   ->    26 x  26 x 255  0.088 BFLOPs
   23 yolo
Loading weights from darknet53.conv.74...Network size: 24
net->n = 24
Done!

###################### Network filter trained weights for layer-0 #############################
[[-0.177586 (j=1),-0.0883213 (j=2),-0.106587 (j=3),0.234517 (j=4),0.0355386 (j=5),-0.169478 (j=6),-0.161892 (j=7),0.052032 (j=8),-0.208111 (j=9),-0.0869841 (j=10),0.0135872 (j=11),-0.00290129 (j=12),0.00288332 (j=13),0.0785041 (j=14),0.126421 (j=15),-0.0964286 (j=16),-0.177583 (j=17),-0.122101 (j=18),-0.119641 (j=19),-0.106867 (j=20),-0.107948 (j=21),0.113039 (j=22),-0.260792 (j=23),-0.0148022 (j=24),0.195294 (j=25),0.0756378 (j=26),-0.000752395 (j=27)
…
