…
   (1) Modify the default method of initializing weights for convolutional layer
   	   Edit make_convolutional_layer() in convolutional_layer.c,
   	   	replace the line: for(i = 0; i < l.nweights; ++i) l.weights[i] = scale*rand_normal();
           with the line: for(i = 0; i < l.nweights; ++i) l.weights[i] = 0; // tmptest
       Then recompile. So that the initial weights of a convolutional weights will be all zeros when first constructed.
   (2) Check the network structure
       $ cd ~/git/darknet.git
   	   $ ./darknet print cfg/yolov3-tiny.cfg yolov3-tiny.weights 0
   	    layer     filters    size              input                output
    	0 conv     16  3 x 3 / 1   416 x 416 x   3   ->   416 x 416 x  16  0.150 BFLOPs
    	1 max          2 x 2 / 2   416 x 416 x  16   ->   208 x 208 x  16
    	2 conv     32  3 x 3 / 1   208 x 208 x  16   ->   208 x 208 x  32  0.399 BFLOPs
    	3 max          2 x 2 / 2   208 x 208 x  32   ->   104 x 104 x  32
    	4 conv     64  3 x 3 / 1   104 x 104 x  32   ->   104 x 104 x  64  0.399 BFLOPs
    	5 max          2 x 2 / 2   104 x 104 x  64   ->    52 x  52 x  64
    	6 conv    128  3 x 3 / 1    52 x  52 x  64   ->    52 x  52 x 128  0.399 BFLOPs
    	7 max          2 x 2 / 2    52 x  52 x 128   ->    26 x  26 x 128
    	8 conv    256  3 x 3 / 1    26 x  26 x 128   ->    26 x  26 x 256  0.399 BFLOPs
    	9 max          2 x 2 / 2    26 x  26 x 256   ->    13 x  13 x 256
   		10 conv    512  3 x 3 / 1    13 x  13 x 256   ->    13 x  13 x 512  0.399 BFLOPs
   		11 max          2 x 2 / 1    13 x  13 x 512   ->    13 x  13 x 512
   		12 conv   1024  3 x 3 / 1    13 x  13 x 512   ->    13 x  13 x1024  1.595 BFLOPs
   		13 conv    256  1 x 1 / 1    13 x  13 x1024   ->    13 x  13 x 256  0.089 BFLOPs
   		14 conv    512  3 x 3 / 1    13 x  13 x 256   ->    13 x  13 x 512  0.399 BFLOPs
   		15 conv    255  1 x 1 / 1    13 x  13 x 512   ->    13 x  13 x 255  0.044 BFLOPs
   		16 yolo
   		17 route  13
   		18 conv    128  1 x 1 / 1    13 x  13 x 256   ->    13 x  13 x 128  0.011 BFLOPs
   		19 upsample            2x    13 x  13 x 128   ->    26 x  26 x 128
   		20 route  19 8
   		21 conv    256  3 x 3 / 1    26 x  26 x 384   ->    26 x  26 x 256  1.196 BFLOPs
   		22 conv    255  1 x 1 / 1    26 x  26 x 256   ->    26 x  26 x 255  0.088 BFLOPs
   		23 yolo
		Loading weights from yolov3-tiny.weights...Done!
		.........(weights of layer-0 printed)
		From this we can see the convolutional layers of this network: 0 2 4 6 8 10 12 13 14 15 18 21 22
   (3) Print layer-6,8,10,12,18,21,22 weights of yolov3-tiny.weights
       ./darknet print cfg/yolov3-tiny.cfg yolov3-tiny.weights 6     # Print weight of layer-6
…
